Model: "model"
_________________________________________________________________
Layer (type)                 Output Shape              Param #   
=================================================================
input (InputLayer)           [(None, 14)]              0         
_________________________________________________________________
gaussian_noise (GaussianNois (None, 14)                0         
_________________________________________________________________
dense (Dense)                (None, 256)               3840      
_________________________________________________________________
dropout (Dropout)            (None, 256)               0         
_________________________________________________________________
dense_1 (Dense)              (None, 256)               65792     
_________________________________________________________________
dropout_1 (Dropout)          (None, 256)               0         
_________________________________________________________________
dense_2 (Dense)              (None, 256)               65792     
_________________________________________________________________
dropout_2 (Dropout)          (None, 256)               0         
_________________________________________________________________
dense_3 (Dense)              (None, 3)                 771       
=================================================================
Total params: 136,195
Trainable params: 136,195
Non-trainable params: 0
_________________________________________________________________
