Model: "model"
_________________________________________________________________
Layer (type)                 Output Shape              Param #   
=================================================================
input (InputLayer)           [(None, 19)]              0         
_________________________________________________________________
gaussian_noise (GaussianNois (None, 19)                0         
_________________________________________________________________
dense (Dense)                (None, 256)               5120      
_________________________________________________________________
dropout (Dropout)            (None, 256)               0         
_________________________________________________________________
dense_1 (Dense)              (None, 256)               65792     
_________________________________________________________________
dropout_1 (Dropout)          (None, 256)               0         
_________________________________________________________________
dense_2 (Dense)              (None, 256)               65792     
_________________________________________________________________
dropout_2 (Dropout)          (None, 256)               0         
_________________________________________________________________
dense_3 (Dense)              (None, 4)                 1028      
=================================================================
Total params: 137,732
Trainable params: 137,732
Non-trainable params: 0
_________________________________________________________________
