Model: "model"
_________________________________________________________________
Layer (type)                 Output Shape              Param #   
=================================================================
input (InputLayer)           [(None, 10)]              0         
_________________________________________________________________
gaussian_noise (GaussianNois (None, 10)                0         
_________________________________________________________________
dense (Dense)                (None, 256)               2816      
_________________________________________________________________
dropout (Dropout)            (None, 256)               0         
_________________________________________________________________
dense_1 (Dense)              (None, 256)               65792     
_________________________________________________________________
dropout_1 (Dropout)          (None, 256)               0         
_________________________________________________________________
dense_2 (Dense)              (None, 256)               65792     
_________________________________________________________________
dropout_2 (Dropout)          (None, 256)               0         
_________________________________________________________________
dense_3 (Dense)              (None, 4)                 1028      
=================================================================
Total params: 135,428
Trainable params: 135,428
Non-trainable params: 0
_________________________________________________________________
